assets/model_ai/plant_disease_model.tflite (tflite, 929476 bytes, 8 tensors)

arith.constant f4 [8]
0	0xbbd0b676	-0.0063694073
1	0xbb3db07f	-0.0028944311
2	0x3bd10439	0.006378677
3	0xbbbbe972	-0.005734616
4	0xbbd1b43f	-0.006399661
5	0xbbc32b0b	-0.005956059
6	0x3b407c55	0.0029370983
7	0xba271c04	-0.0006374719

arith.constant1 f4 [16]
0	0x3bf46237	0.007457997
1	0x3920d97e	0.00015339811
2	0x3c0f08e3	0.008730146
3	0x3bd262bf	0.006420463
4	0x3c39240e	0.0113001
5	0xbbea37e9	-0.0071477783
6	0x3c158663	0.009126279
7	0xb8c78b6b	-9.515028e-05
8	0x3c382ef9	0.011241668
9	0x3a0e0fda	0.0005419232
10	0xbb825fc8	-0.003978703
11	0x3bd21bb8	0.0064119957
12	0x3bbaa0b2	0.005695426
13	0xbbbd3793	-0.005774447
14	0x3c886bb6	0.016652923
15	0xbb1702c6	-0.0023042425

arith.constant2 f4 [3]
0	0x3b887ed4	0.0041655097
1	0xbbdb7ec9	-0.0066984636
2	0x3baed4d4	0.0053354297

arith.constant3 f4 [16, 3, 3, 32]
0	0x3cbbb096	0.022911351
1	0xbdd889e9	-0.10573179
2	0xbdd69f37	-0.104795866
3	0xbc631997	-0.013861082
4	0xbb5f12d5	-0.0034038324
5	0x3df69d78	0.120417535
6	0x3df49065	0.119416036
7	0x3d2cf255	0.042223293
8	0xbbceb861	-0.006308601
9	0xbd510327	-0.051028397
10	0xbca0105c	-0.01953905
11	0x3d082dfd	0.033246983
12	0xbd8e3e89	-0.069455214
13	0x3c974a4d	0.018468047
14	0x3d71711c	0.05894576
15	0x3da1c3fb	0.078987084
16	0x3d87ffb0	0.066405654
17	0x3d87e907	0.06636243
18	0xbd8e7b54	-0.06957117
19	0x3dfc6bfa	0.123252824
20	0xbda98562	-0.08277394
21	0x3cfaf77b	0.030635586
22	0xbd293999	-0.041314695
23	0xbd0f8193	-0.03503568
24	0x3dee29b6	0.116290495
25	0xbdadb08e	-0.08480941
26	0x3dd371cd	0.1032444
27	0xbd06073d	-0.032721747
28	0xbd08c804	-0.033393875
29	0xbc6fc6c9	-0.014634796
30	0x3d9a09d2	0.07521404
31	0x3d793cee	0.060849123
32	0xbd4adf4c	-0.04952936
33	0xbba36da2	-0.0049874345
34	0x3c832a0c	0.01601126
35	0xbd0a7c3b	-0.03380988
36	0xbdc9e087	-0.09857278
37	0xbd70e023	-0.058807503
38	0xbdc7bb91	-0.09752572
39	0xbdd79c21	-0.10527826
40	0xbd0fb1bc	-0.03508161
41	0xbd096639	-0.033544753
42	0xbde1d89f	-0.11027645
43	0xbd3cce3d	-0.04609512
44	0xbaebf7c6	-0.0018002919
45	0x3c24a2a9	0.010048547
46	0x3df2718f	0.11838066
47	0x3ddca6e9	0.10774023
48	0x3ca1f9df	0.019772468
49	0x3df14056	0.11779849
50	0xbce10724	-0.027469225
51	0x3de36482	0.11103155
52	0x3c12fd8c	0.008971583
53	0x3bc31617	0.005953561
54	0x3d98849a	0.07447167
55	0x3dd8a432	0.10578193
56	0x3d4b9955	0.049706776
57	0x3d7692c8	0.060198575
58	0x3dc4ec4a	0.09615381
59	0x3dcf81c6	0.10132174
60	0xbda157eb	-0.07878097
61	0xbc8477d7	-0.016170425
62	0xbc8d7971	-0.017269822
63	0x3d96628a	0.073430136
64	0xbdb0bcaa	-0.08629735
65	0x3ddcae66	0.10775451
66	0x3cd1f7d7	0.025630875
67	0xbcbc32fa	-0.022973526
68	0xbc828221	-0.01593119
69	0xbd4b2b9b	-0.049602132
70	0x3d4aac01	0.049480442
71	0xbd5d7149	-0.054063115
72	0xbbf58f28	-0.007493872
73	0xbdaa86c3	-0.08326485
74	0xbc25cb96	-0.010119339
75	0x3d276bfe	0.040874474
76	0x3d68ca00	0.056833267
77	0x3e02e4b7	0.1278256
78	0xbd2038b8	-0.03911659
79	0xbde00e4e	-0.109402284
80	0xbd376c69	-0.044781122
81	0xbcb06288	-0.021531358
82	0x3c093704	0.008374933
83	0x3d09f682	0.033682354
84	0xbd53d7f7	-0.051719632
85	0x3cf52e98	0.029929444
86	0xbdc0616b	-0.09393581
87	0x3d557ad5	0.052119095
88	0x3ceab0e5	0.028648803
89	0x3cbdaedb	0.023154667
90	0xbdc7b672	-0.097515956
91	0x3d285647	0.041097905
92	0x3d5cb46c	0.053883
93	0xbc49efac	-0.012325209
94	0xbd3a3e92	-0.045469828
95	0x3ca12ee1	0.019675674
96	0x3d525874	0.051353887
97	0xbd00fb4b	-0.03148965
98	0xbda057b0	-0.07829225
99	0xbd1f60a5	-0.038910527
100	0x3cdf0d55	0.027228037
101	0xbdc011ee	-0.0937842
102	0xbdca47ea	-0.09876998
103	0xbdd31cfd	-0.103082635
104	0xbd5a3ddc	-0.05328165
105	0x3dccc7de	0.09999059
106	0xbd6d2727	-0.057898667
107	0xbc2f1eea	-0.010688523
108	0xbd7fb721	-0.062430505
109	0x3d868512	0.0656835
110	0x3dca3a4c	0.098744005
111	0x3d4d110c	0.050065085
112	0x3d91c9b1	0.07118548
113	0xbc3af0ab	-0.011409919
114	0xbd3711b9	-0.044694636
115	0x3dd1ab9e	0.102378115
116	0x3c48d460	0.012257665
117	0x3d182dc5	0.037153024
118	0x3d7c4138	0.061585635
119	0x3dca0b46	0.098654315
120	0xbcd94c67	-0.02652569
121	0x3c9be30a	0.01902916
122	0x3d053cd8	0.03252873
123	0xbdc875e5	-0.097881116
124	0x3de2d041	0.110748775
125	0x3d56d1c2	0.052446134
126	0x3dd7ba43	0.105335735
127	0xbdc4b787	-0.096053176
128	0x3dee248b	0.11628064
129	0xbcffbc6c	-0.031217776
130	0xbdd902e9	-0.10596258
131	0x3ad4345e	0.0016189923
132	0xbdccb306	-0.099950835
133	0xbcb91b3d	-0.022595996
134	0xbd87aaaf	-0.06624352
135	0xbbf4c11f	-0.007469311
136	0x3c14d790	0.009084597
137	0xbcb8d18c	-0.022560857
138	0xbb023b16	-0.0019871644
139	0xbca901b0	-0.020630687
140	0x3d2d2dbc	0.042279944
141	0xbd903f3f	-0.07043313
142	0x3dd04a23	0.101703905
143	0xbb649baa	-0.0034882822
144	0x3d936cd6	0.07198493
145	0x3de55ebe	0.11199711
146	0x3d15d809	0.03658298
147	0xbd709090	-0.058731616
148	0xbc819798	-0.015819356
149	0x3d8b8026	0.06811552
150	0x3d111b1d	0.035426248
151	0x3d1b900b	0.037979167
152	0x3d277509	0.040883098
153	0x3b89d9dc	0.004206879
154	0xbcef8003	-0.029235845
155	0x3db405c4	0.08790162
156	0xbd255865	-0.040367503
157	0x3da37ffb	0.07983395
158	0xbdc651c5	-0.09683565
159	0x3db0a4df	0.08625197
160	0xbd89bbbf	-0.06725263
161	0x3cea352e	0.028589811
162	0x3d173c33	0.036922645
163	0xbdd4bc86	-0.103875205
164	0x3dd4e7b0	0.103957534
165	0xbdbe416a	-0.092898205
166	0xbdc77f6a	-0.09741099
167	0x3dadc076	0.08483975
168	0x3da75dfe	0.081722245
169	0x3d7f932a	0.062396206
170	0xbdfa3da7	-0.122187905
171	0xbdc9e8c4	-0.0985885
172	0x3d49d0ea	0.0492715
173	0xbca34940	-0.01993239
174	0xbce8fc12	-0.028440509
175	0x3d485bc7	0.04891565
176	0x3dd88750	0.10572684
177	0x3dbbc6c7	0.09168773
178	0xbd99fa53	-0.07518449
179	0x3d57c759	0.052680347
180	0x3ce7c22c	0.02829083
181	0x3c565a3c	0.013083037
182	0x3bfa74d4	0.0076433215
183	0x3d8081a5	0.06274728
184	0x3cd9fa43	0.026608592
185	0x3d04d83d	0.032432783
186	0x3caa9db0	0.020827144
187	0xbcd29d44	-0.025709756
188	0x3da572d5	0.08078543
189	0xbdccfa68	-0.10008699
190	0x3d7123c1	0.05887199
191	0x3d875414	0.066078335
192	0xbdb6d06b	-0.08926471
193	0xbd6293c1	-0.05531669
194	0xbd805fcd	-0.062682725
195	0xbc7f4118	-0.015579484
196	0x3d1f1c5d	0.03884541
197	0xbc8d20b5	-0.01722751
198	0x3d0a718e	0.0337997
199	0xbc2549ad	-0.010088366
200	0xbd0a8e86	-0.033827327
201	0xbd0092b5	-0.03138991
202	0xbd666628	-0.056249768
203	0xbdcda1b7	-0.1004061
204	0xbd850f70	-0.06497085
205	0x3dbe47c5	0.09291033
206	0x3cce827b	0.025208702
207	0xbcf79131	-0.0302206
208	0xbccd375a	-0.025050808
209	0x3c1c78aa	0.009550253
210	0xbda118e6	-0.07866077
211	0x3d9ef73e	0.077620015
212	0x3de969a7	0.11397105
213	0xbd455b69	-0.04818288
214	0xbdc3b6c9	-0.09556348
215	0x3d1382bb	0.036013346
216	0xbd9f04f9	-0.0776462
217	0xbdaca214	-0.084293514
218	0x3dd80c80	0.10549259
219	0xbd2eef42	-0.042708643
220	0x3de391ba	0.111117795
221	0xbd80ead6	-0.062947914
222	0xbdcd453a	-0.100229695
223	0x3d07f1bc	0.03318952
224	0x3dc1fa1c	0.09471533
225	0x3d01838a	0.031619586
226	0x3da2ae81	0.0794344
227	0x3dd51adf	0.10405516
228	0xbc9ff797	-0.01952724
229	0x3dee3a3a	0.116321996
230	0xbdc8ab75	-0.09798328
231	0xbd91e1da	-0.07123156
232	0x3ddf6f03	0.10909846
233	0x3cbe1051	0.02320114
234	0xbb357e07	-0.0027693526
235	0x3d86c4e2	0.06580521
236	0xbd61e4e6	-0.055149935
237	0xbdb5188b	-0.08842572
238	0x3d21d7e7	0.03951254
239	0x3c1d4844	0.009599749
240	0x3d64fd2b	0.055905502
241	0xbda96067	-0.082703404
242	0x3dfea8af	0.124345176
243	0x3d2bbddd	0.041929115
244	0xbcf782a0	-0.030213654
245	0x3cfa7d79	0.030577408
246	0xbbc7b360	-0.006094381
247	0xbd0e3d7d	-0.03472661
248	0x3df69066	0.120392606
249	0xbda91ef4	-0.08257857
250	0xbdb9ab1b	-0.09065839
251	0x3d494381	0.049136642
252	0x3dfaf88d	0.122544385
253	0xbd8d889c	-0.06910822
254	0xbdb17d3a	-0.08666463
255	0x3cefd9cf	0.029278664

arith.constant4 f4 [3, 8]
0	0x3e5fb931	0.21847989
1	0xbf1a3803	-0.6024172
2	0x3edbabf3	0.42904624
3	0x3e585fe6	0.21130332
4	0x3f159307	0.5842747
5	0xbe9122e0	-0.2834692
6	0xbf39bfae	-0.72558105
7	0x3f19a783	0.6002123
8	0x3f1a2328	0.60209894
9	0x3efb4c87	0.49081823
10	0xbea033bc	-0.3128947
11	0x3ea3fc58	0.3202846
12	0x3f175041	0.5910683
13	0xbe82012e	-0.25391525
14	0x3e79d332	0.24396971
15	0x3f2a571b	0.6653916
16	0xbf2a7f70	-0.66600704
17	0x3eb26a2a	0.34846622
18	0x3e133f2c	0.14379567
19	0xbd0df2a3	-0.034655225
20	0x3f06a114	0.52589536
21	0xbec2b210	-0.38026476
22	0x3f1daa6b	0.6158816
23	0xbe56b8c0	-0.20968914

arith.constant5 f4 [8, 28224]
0	0xbbe9b2d8	-0.0071319155
1	0x3c0ab631	0.008466289
2	0xbbfb41d1	-0.007667758
3	0x3bede152	0.0072595263
4	0x3a1d18a9	0.00059927494
5	0x3c1bdb2a	0.009512702
6	0xbc7d7aa1	-0.015471132
7	0xba86ecdd	-0.001029398
8	0xbc4eea17	-0.012629054
9	0xbc9929bb	-0.018696656
10	0x3c3c7df2	0.011504637
11	0x3c1b53e6	0.009480452
12	0xbc1ff0c4	-0.009761993
13	0x3c9b1e4a	0.018935341
14	0x3c0d786f	0.008634671
15	0xbc1cd0c9	-0.009571263
16	0x39de8c8c	0.00042447855
17	0xbbd547c5	-0.0065087997
18	0xbc490954	-0.01227029
19	0xbcb5d9b2	-0.022198532
20	0x3c832d74	0.016012885
21	0x3a563a24	0.0008172116
22	0x3c1cc665	0.009568785
23	0xbc4563a2	-0.01204768
24	0xbc4eb187	-0.012615568
25	0xbb27eced	-0.0025623397
26	0x3c22a2ae	0.009926481
27	0xbc3e5bf4	-0.011618603
28	0x3c10c5b3	0.008836198
29	0x3bdb6e4e	0.006696499
30	0xbb460a8b	-0.0030218686
31	0x3c648db2	0.013949798
32	0xbb801595	-0.003908823
33	0x3c8c1aac	0.017102562
34	0xbc190f42	-0.009342017
35	0xbcea066e	-0.028567519
36	0x3ca16a08	0.01970388
37	0xbb6ae61e	-0.0035842727
38	0xbc0c3c93	-0.008559364
39	0xbc2ca52c	-0.010537427
40	0xbbe025e1	-0.006840453
41	0xbc8422a7	-0.016129805
42	0xb893e9da	-7.0530645e-05
43	0x3c444c2f	0.011981054
44	0xbc33b718	-0.010968946
45	0xbb1b7ce3	-0.0023725561
46	0xba0c510a	-0.0005352652
47	0x3c5848c7	0.013200945
48	0x3b7bd7db	0.003842822
49	0x3c80ccf2	0.015722726
50	0xbc0bb320	-0.008526593
51	0xbbaff128	-0.0053693242
52	0x3b4b019b	0.0030976299
53	0x3b90d686	0.0044201044
54	0xbc406c4a	-0.011744568
55	0x3b15fcae	0.0022886205
56	0xbb14c515	-0.0022700478
57	0xbbdd35f5	-0.006750817
58	0x3bdf844b	0.0068211905
59	0xbc1d2ebe	-0.009593664
60	0x3c74ca1d	0.014940766
61	0x3c8b27ec	0.01698681
62	0xbb097325	-0.0020973173
63	0x3c0dcf2a	0.008655349
64	0xbca81f72	-0.020522807
65	0xbbffbe71	-0.007804685
66	0x3c26e745	0.010186975
67	0xbcb03fb3	-0.02151475
68	0x3bccda34	0.006251598
69	0xbc2ae3a3	-0.010430249
70	0x3c0211b4	0.007938791
71	0x3aa9f3f9	0.0012966386
72	0x3c2a3b22	0.010390075
73	0xbbb1b416	-0.0054230792
74	0x3c4b1785	0.012395744
75	0xbbbb1dbf	-0.005710333
76	0x3c3aafc6	0.011394447
77	0x3b9a6551	0.004711785
78	0x3ae977f5	0.0017812239
79	0x3ca24ff2	0.019813512
80	0xba79648f	-0.00095135806
81	0xbc1c47d3	-0.009538609
82	0x3c105040	0.008808196
83	0xbc0a108b	-0.008426796
84	0xbbee8616	-0.007279168
85	0x3c343cfa	0.011000866
86	0x3bba6d38	0.0056892894
87	0xbb9f00a3	-0.004852371
88	0xbc28a06b	-0.010292153
89	0xbc0d0f98	-0.008609675
90	0x3cafef86	0.021476518
91	0xbbbaa2d2	-0.005695679
92	0xbb39741e	-0.002829797
93	0xb8f37904	-0.00011609684
94	0x3c5f88ce	0.013643457
95	0xbb97ca6d	-0.0046322853
96	0x3c4ebcd9	0.012618267
97	0x3c283456	0.010266384
98	0xbaf81d16	-0.0018929567
99	0x3ab701ea	0.0013962362
100	0x3c357d04	0.011077169
101	0x3b9bd6d9	0.0047558364
102	0x3bbc2023	0.0057411357
103	0xbc2d416a	-0.010574678
104	0xbaa7e4f0	-0.0012809318
105	0xbc255546	-0.010091132
106	0x3a750cc7	0.0009347912
107	0x3a6f4150	0.0009126859
108	0xba87fdda	-0.0010375336
109	0x3c40734b	0.011746238
110	0x3c95677b	0.01823782
111	0x3c233ab0	0.009962723
112	0xbc0ac28f	-0.008469238
113	0x3c8ba086	0.017044317
114	0xbc7950a5	-0.015216981
115	0x3ae92d70	0.0017790031
116	0x3c92f715	0.017940084
117	0x3b263682	0.002536208
118	0x39df68e7	0.00042612033
119	0xbb835212	-0.0040075863
120	0x3c1acab6	0.009447744
121	0x3c1cf49f	0.009579807
122	0x3c746f38	0.014919095
123	0xbc2c1f4f	-0.010505511
124	0x3bb14d5e	0.005410834
125	0x3b660a58	0.003510138
126	0x3bca2d90	0.0061699823
127	0x39f73fdf	0.000471591
128	0xbbc5490a	-0.00602067
129	0x3af2a19e	0.00185113
130	0x3c504163	0.012710902
131	0x3a705ce9	0.0009169118
132	0x3c4056f5	0.011739482
133	0x3b81f486	0.003965917
134	0xbc771917	-0.0150816655
135	0xbc16f7b0	-0.009214327
136	0xbc0835f0	-0.008313641
137	0xbaba42bb	-0.0014210561
138	0x3be50620	0.0069892555
139	0x3b07a921	0.0020700174
140	0xbba2f6b3	-0.0049732565
141	0x3caff653	0.021479761
142	0x3c0fa019	0.008766198
143	0x3c9e1bfb	0.019300452
144	0xba710058	-0.00091934716
145	0x3b5ea70b	0.0033974077
146	0x3bbaa135	0.005695487
147	0xbbd4fd42	-0.0064999172
148	0x3c927d8a	0.017882127
149	0x3c145715	0.009053965
150	0xbba2f99f	-0.004973605
151	0xbc11eb0a	-0.008906135
152	0xbc02bba7	-0.00797931
153	0xbbcb755b	-0.006209058
154	0xb9a0c9cb	-0.00030667926
155	0xbb076890	-0.002066169
156	0x3c83dac5	0.016095528
157	0x3bf07fb5	0.0073394426
158	0x3c129912	0.008947628
159	0x3c83d00a	0.016090412
160	0xbc0a3c91	-0.008437292
161	0x3b860f64	0.00409119
162	0xbc6fcb0b	-0.014635812
163	0x3c813a73	0.015774941
164	0xbbc0269f	-0.005863979
165	0x3bd3fc0b	0.006469255
166	0x3bbed8ab	0.0058241687
167	0x3ba02de7	0.0048882845
168	0xbc49b6cc	-0.012311649
169	0x3bc98365	0.0061496967
170	0x3c1a2fae	0.009410782
171	0xbb7f9f62	-0.0039004912
172	0xbb5b5f87	-0.0033473687
173	0x3c0a37c2	0.008436145
174	0xbc249cc0	-0.010047138
175	0x3c9723b8	0.01844965
176	0xbb0e74ad	-0.0021737025
177	0x3c42b0f2	0.011883007
178	0x3c1299c1	0.008947791
179	0xb8f401ce	-0.00011635163
180	0x3bc768b5	0.00608548
181	0xbb4f3086	-0.0031614616
182	0x3ba27ac2	0.0049584815
183	0xba992d9a	-0.0011686564
184	0x3a8aab3a	0.0010579594
185	0xbbc006d6	-0.00586019
186	0x3c65fe9d	0.014037755
187	0x3a11728f	0.00055483816
188	0xbb17ef41	-0.0023183378
189	0x3b90b002	0.004415513
190	0x3c0d75be	0.008634029
191	0x3cb107a0	0.021610081
192	0xbbda795f	-0.0066673006
193	0xbc166052	-0.009178238
194	0xbc5714fd	-0.013127563
195	0xba9f8038	-0.001216895
196	0xbbd89192	-0.00660915
197	0x3c6d3d7f	0.014479994
198	0x3c2ca2fa	0.0105369035
199	0xb9c1bd27	-0.00036952758
200	0xbae7ecc3	-0.0017694462
201	0xbc8f009a	-0.017456342
202	0x3c07b9ef	0.008284076
203	0x3c611719	0.013738417
204	0xbad1e961	-0.0016014987
205	0x3cc1bed7	0.02365057
206	0xba092f1c	-0.0005233155
207	0x3c54ec0e	0.012995733
208	0xbc56a42c	-0.013100665
209	0x3ba68e67	0.0050828937
210	0xba89bb91	-0.001050817
211	0xbb7a2a51	-0.0038172195
212	0x3c085b04	0.008322481
213	0x3c5d69ef	0.013514026
214	0x3b56a036	0.0032749302
215	0xba216fd1	-0.00061583245
216	0xbc00a711	-0.007852332
217	0xbbf2c5fb	-0.007408855
218	0x3c9ffc3b	0.019529453
219	0x3c41b8b4	0.011823822
220	0x3c31adda	0.010844672
221	0x3b9bdc7a	0.0047565075
222	0xbc5f201d	-0.013618496
223	0x3c76fe7e	0.015075324
224	0x3a80d54e	0.0009829195
225	0xbc163202	-0.009167196
226	0xbbd7cea7	-0.006585914
227	0x3c2d861e	0.010591058
228	0x3c20e547	0.009820289
229	0xbb4613e9	-0.003022427
230	0x3bd1dca2	0.0064044753
231	0x3ac32554	0.0014888444
232	0xbc519c38	-0.012793593
233	0xbc7a7511	-0.0152867
234	0x3c93c0b1	0.018036218
235	0x3b813c04	0.003943922
236	0x3c5874b8	0.013211422
237	0x3b1005d5	0.0021976132
238	0x3c305623	0.010762724
239	0x3bcc3476	0.00623184
240	0xbb94f41a	-0.0045457007
241	0x3c606959	0.013696992
242	0x3beffb44	0.0073236544
243	0x3bc0869a	0.0058754208
244	0x3c8a9e22	0.016921107
245	0x3c0a1996	0.008428952
246	0xbc5b7e38	-0.013396792
247	0xbbf1441a	-0.0073628547
248	0xbbe23732	-0.0069035525
249	0x3c1e3eb0	0.009658501
250	0x3c8e2619	0.01735215
251	0xbb92d77e	-0.004481255
252	0xbc168159	-0.009186112
253	0x3ba180d4	0.0049286876
254	0x3bc53d86	0.006019297
255	0x3b7b7eee	0.0038375217

sequential_1/conv2d_1/convolution f4 [32, 3, 3, 3]
0	0xbc1df091	-0.009639875
1	0xbcba0233	-0.022706127
2	0x3c06be96	0.00822415
3	0x3d89bc16	0.06725328
4	0x3e0655a8	0.13118613
5	0x3b9c145a	0.0047631683
6	0xbd395af9	-0.045252774
7	0x3c767aac	0.015043896
8	0x3d089ef3	0.03335471
9	0x3c98443b	0.018587222
10	0x3dfbf4cb	0.1230255
11	0x3deb6417	0.114937
12	0x3c8f99c1	0.01752937
13	0xbd89c5ee	-0.06727205
14	0xbd153c81	-0.036434654
15	0xbdeeefd7	-0.116668396
16	0x3d2af51f	0.041737672
17	0xbdb4e66f	-0.08833014
18	0x3da4a9e2	0.08040215
19	0xbddd8579	-0.108164735
20	0x3c9270d6	0.01787607
21	0x3c07cd11	0.008288638
22	0xbdab0ef1	-0.08352459
23	0xbcf9ce03	-0.030493742
24	0xbd8d47a1	-0.06898428
25	0x3d086d8a	0.03330759
26	0xbd209eac	-0.03921382
27	0xbe0d4083	-0.1379414
28	0xbd9cdce7	-0.07659321
29	0xbd824e6b	-0.06362613
30	0x3da3dec7	0.08001476
31	0x3db3da7f	0.08781909
32	0xbd77a46b	-0.060459536
33	0x3dd91d45	0.10601286
34	0x3e07ae38	0.13250053
35	0xbde4d61e	-0.11173652
36	0xbd0cc458	-0.034366935
37	0x3db312a4	0.0874379
38	0x3d2038dc	0.039116725
39	0x3d797440	0.06090188
40	0xbddbdfc0	-0.10736036
41	0xbcdd55bb	-0.027018419
42	0xbd7d9281	-0.061907295
43	0x3c5b9c28	0.01340393
44	0xbbc5fbf0	-0.006041996
45	0xbcf126f1	-0.029437514
46	0x3d9dab6f	0.07698714
47	0xbc8c87ce	-0.0171546
48	0xbdd6ad73	-0.104823016
49	0xbdc827eb	-0.09773239
50	0xbdc088f1	-0.094011195
51	0xbd9b709f	-0.0758984
52	0x3d140210	0.03613478
53	0x3e0c4aeb	0.13700454
54	0xbde58a40	-0.1120801
55	0xbcc799b0	-0.024365276
56	0x3dff7fa2	0.12475516
57	0xbd340d54	-0.043958023
58	0xbccc88a0	-0.024967492
59	0x3e12f4da	0.14351216
60	0x3d73af81	0.059493545
61	0x3db2a7c2	0.087234035
62	0xbd12b378	-0.035815686
63	0x3ccc99f7	0.02497576
64	0xbd4d9321	-0.05018914
65	0x3e1282dc	0.14307731
66	0xb94605d4	-0.00018884923
67	0xbd90d1ba	-0.07071252
68	0xbc93e30c	-0.0180526
69	0xbde2a0db	-0.11065837
70	0xbde499f5	-0.111621775
71	0xbb783f77	-0.0037879625
72	0xbdbde7bb	-0.09272715
73	0x3b3fb19a	0.0029250146
74	0x3dd2bafb	0.1028957
75	0x3dfa8e15	0.12234131
76	0x3d8488ac	0.064713806
77	0xbb696814	-0.0035615014
78	0x3b680b11	0.0035406987
79	0xbd863cf6	-0.06554596
80	0xbdabbef1	-0.083860286
81	0xbdc53d7d	-0.096308686
82	0x3d141320	0.03615105
83	0xbde20ce2	-0.110376135
84	0x3dc8e85c	0.09809944
85	0x3d7ca617	0.061681833
86	0x3cf35b29	0.029706554
87	0x3e0a582a	0.13510194
88	0xbce75166	-0.028237056
89	0xbdace39f	-0.08441853
90	0x3dc721fc	0.09723279
91	0xbd911e60	-0.07085872
92	0xbc5902a0	-0.013245255
93	0x3e1345e8	0.14382136
94	0x3da6907d	0.08133028
95	0x3de76964	0.112993985
96	0xbdaa3ded	-0.08312593
97	0xbdd863b0	-0.10565889
98	0x3d5819a9	0.052758846
99	0x3e066ab6	0.13126644
100	0xbde6d574	-0.11271182
101	0x3d261504	0.040547386
102	0xbde49eff	-0.111631386
103	0x3d3e0111	0.046387736
104	0xbd566c1c	-0.052349195
105	0xbd920070	-0.0712899
106	0x3db43c9c	0.08800623
107	0xbb07c9d8	-0.0020719673
108	0x3c2aae19	0.010417485
109	0x3d922438	0.071358144
110	0x3d94e90a	0.07271011
111	0x3b1595d6	0.0022824905
112	0x3db49d66	0.08819084
113	0x3c647c52	0.013945656
114	0xbdc4b514	-0.096048504
115	0xbd62904e	-0.0553134
116	0x3e011548	0.12605774
117	0x3aaa994e	0.0013015659
118	0xbc0a3af3	-0.008436906
119	0xbd9eadb5	-0.07747976
120	0x3d9cec52	0.07662262
121	0xbc44421a	-0.01197865
122	0x3ddb9d3d	0.1072335
123	0xbd00f2d3	-0.031481575
124	0x3ce4c962	0.027928058
125	0x3d985803	0.07438662
126	0xbd1cc735	-0.038275916
127	0x3de0f8e6	0.109849736
128	0xbd30ebdd	-0.043193687
129	0xbde5c6b0	-0.11219537
130	0x3e101192	0.14069203
131	0xbd9297fe	-0.071578965
132	0xbcd960f9	-0.026535498
133	0x3dfae800	0.12251282
134	0x3e0f3c99	0.1398796
135	0xbc3668b5	-0.011133363
136	0x3cac3174	0.021019675
137	0xbd2be1c2	-0.041963346
138	0xbd824e57	-0.063625984
139	0xbd066522	-0.03281129
140	0x3df76fab	0.12081846
141	0xbdc54665	-0.09632567
142	0xbd10c217	-0.03534135
143	0x3d6f6c12	0.058452673
144	0xbdb8c4fb	-0.09021946
145	0x3dfab8a3	0.12242248
146	0xbdc23580	-0.094828606
147	0xbcaebe72	-0.021331046
148	0x3dc1e47d	0.09467409
149	0xbd8b3222	-0.067966715
150	0x3db82c33	0.08992805
151	0x3ca04090	0.019562036
152	0x3da147c2	0.07875015
153	0x3d6f89fb	0.058481198
154	0x3e031aee	0.12803242
155	0x3dae1336	0.08499758
156	0xbc002050	-0.007820204
157	0x3e02bad2	0.12766579
158	0xbc47a387	-0.012184984
159	0xbdbdb32b	-0.09262689
160	0xbdcd3b80	-0.10021114
161	0x3dc0abef	0.09407794
162	0x3d8a82c9	0.067632265
163	0x3d305a5e	0.04305493
164	0xbd95568e	-0.072918996
165	0x3ddedb5b	0.108816825
166	0xbd9e1488	-0.0771876
167	0x3e04f7f3	0.1298521
168	0xbe063414	-0.13105804
169	0x3d548e90	0.05189377
170	0x3dda2a51	0.106526025
171	0x3bcaaa30	0.0061848387
172	0xbc874496	-0.016512197
173	0xbd9ab7d9	-0.075545974
174	0xbe0cd295	-0.13752206
175	0x3c996ef5	0.018729666
176	0x3dc0ea8d	0.09419737
177	0xbd41c51f	-0.04730713
178	0x3d5f37e9	0.05449668
179	0x3af88e34	0.0018963278
180	0xbdc00422	-0.09375788
181	0xbd7f8e20	-0.0623914
182	0x3cdd9300	0.027047634
183	0x3c189da6	0.00931493
184	0xbdf7b197	-0.120944194
185	0xbdd0b2bc	-0.10190341
186	0x3db36ba0	0.08760762
187	0x3db040a8	0.08606082
188	0x3de1dab1	0.1102804
189	0xbd8d4009	-0.06896979
190	0x3c4923c5	0.0122765945
191	0xbd3d9f20	-0.04629433
192	0x3d65ce57	0.056104984
193	0x3e017af6	0.12644562
194	0xbdc18490	-0.094491124
195	0x3df460d3	0.1193253
196	0xbd2905b1	-0.041265193
197	0xbd0b99dd	-0.034082282
198	0x3d4b20a7	0.049591687
199	0x3d599fb1	0.05313081
200	0xbd556126	-0.0520946
201	0x3c94b98e	0.018154886
202	0xbdba6471	-0.09101189
203	0xbd900ad6	-0.07033317
204	0x39b2867e	0.0003405101
205	0xbd955c09	-0.07292945
206	0xbdcb4605	-0.099254645
207	0x3d80b718	0.06284922
208	0x3d47d4aa	0.048786797
209	0x3d7938f4	0.06084533
210	0x3e0866db	0.13320486
211	0x3de3ead3	0.111287735
212	0xbd7cb450	-0.061695397
213	0x3dc3082e	0.095230445
214	0xbd7b7941	-0.061394934
215	0x3c5c3f80	0.013442874
216	0x3df45ab8	0.11931366
217	0x3dfe9afb	0.12431904
218	0xbd8aa91a	-0.06770535
219	0xbd12366b	-0.03569643
220	0xbbbabbed	-0.005698672
221	0x3def6007	0.11688238
222	0x3da988b7	0.082780294
223	0xbbf98577	-0.007614787
224	0xbcd4200f	-0.025894193
225	0x3d472b10	0.048625052
226	0x3dbb94d6	0.091592476
227	0xbdd86acf	-0.10567247
228	0xbdae9527	-0.08524542
229	0xbd923f88	-0.07141024
230	0x3ccbf888	0.024898782
231	0x3b6dfcc6	0.0036313995
232	0x3d754d25	0.059888024
233	0xbc31bd14	-0.010848302
234	0xbcfe8003	-0.0310669
235	0xbe05dd92	-0.13072804
236	0x3d4893d0	0.04896909
237	0xbdd3f536	-0.10349505
238	0x3dbfafb5	0.09359685
239	0xbdbf836a	-0.09351237
240	0x3bb44b0a	0.0055021094
241	0xbdb71d6f	-0.08941161
242	0x3d851cad	0.0649961
243	0x3ca40d4e	0.020025875
244	0x3d8a2e6e	0.06747137
245	0xbdcfdb58	-0.101492584
246	0x3da21335	0.0791382
247	0x3e21a918	0.1578716
248	0x3daa1f7b	0.08306786
249	0xbde8cf33	-0.11367645
250	0xbdfaa572	-0.122385874
251	0xbdfb2363	-0.12262609
252	0x3e1e3ac2	0.15452102
253	0xbd55dbf5	-0.05221172
254	0xbdb0328f	-0.08603393
255	0xbc18c864	-0.009325121

sequential_1/conv2d_1/Relu;sequential_1/conv2d_1/BiasAdd;sequential_1/conv2d_1/convolution; f4 [32]
0	0xbc43fd2e	-0.011962218
1	0xb9dd4da6	-0.00042210257
2	0x3b40aa00	0.0029398203
3	0xbbcee699	-0.0063141105
4	0x3c096baf	0.00838749
5	0xbc0bc022	-0.008529695
6	0xbbe03537	-0.006842281
7	0xbb3c76ba	-0.002875729
8	0x3b66bf61	0.0035209286
9	0xbb3813e8	-0.0028088037
10	0x3ba95d20	0.005168572
11	0xbc674902	-0.0141165275
12	0xbb0170f6	-0.0019751168
13	0x3c98bee8	0.018645719
14	0x38c93e54	9.5960364e-05
15	0x3915eaba	0.0001429719
16	0x3c5a74fc	0.013333555
17	0x3bf9358f	0.0076052616
18	0xbbafac5e	-0.005361124
19	0x3bef0974	0.007294828
20	0xbc160182	-0.009155633
21	0xbb348f21	-0.0027551132
22	0xbb7fb049	-0.0039014986
23	0x3c447329	0.011990347
24	0x3bf9da31	0.0076248874
25	0xbb0fc5ca	-0.002193796
26	0x3c0f40db	0.00874349
27	0xbc0ef265	-0.008724784
28	0x3c016c57	0.007899365
29	0xbb238f0f	-0.0024957096
30	0x3a82a62b	0.0009967735
31	0x3bf5219a	0.0074808123
